…
/usr/local/lib/python3.11/dist-packages/torch/utils/data/dataloader.py:624: UserWarning: This DataLoader will create 8 worker processes in total. Our suggested max number of worker in current system is 4, which is smaller than what this DataLoader is going to create. Please be aware that excessive worker creation might get DataLoader running slow or even freeze, lower the worker number to avoid potential slowness/freeze if necessary.\
  warnings.warn(\
Total number of batches per epoch for each client is  391\
original channel size of smashed-data is 128\
added bottleneck, new channel size of smashed-data is 8\
local:\
Sequential(\
  (0): Conv2d(3, 64, kernel_size=(3, 3), stride=(1, 1), padding=(1, 1))\
  (1): BatchNorm2d(64, eps=1e-05, momentum=0.1, affine=True, track_running_stats=True)\
  (2): ReLU(inplace=True)\
  (3): MaxPool2d(kernel_size=2, stride=2, padding=0, dilation=1, ceil_mode=False)\
  (4): Conv2d(64, 128, kernel_size=(3, 3), stride=(1, 1), padding=(1, 1))\
  (5): BatchNorm2d(128, eps=1e-05, momentum=0.1, affine=True, track_running_stats=True)\
  (6): ReLU(inplace=True)\
  (7): MaxPool2d(kernel_size=2, stride=2, padding=0, dilation=1, ceil_mode=False)\
  (8): Conv2d(128, 8, kernel_size=(3, 3), stride=(1, 1), padding=(1, 1))\
  (9): Sigmoid()\
)\
cloud:\
Sequential(\
  (0): Conv2d(8, 128, kernel_size=(3, 3), stride=(1, 1), padding=(1, 1))\
  (1): Conv2d(128, 256, kernel_size=(3, 3), stride=(1, 1), padding=(1, 1))\
  (2): BatchNorm2d(256, eps=1e-05, momentum=0.1, affine=True, track_running_stats=True)\
  (3): ReLU(inplace=True)\
  (4): Conv2d(256, 256, kernel_size=(3, 3), stride=(1, 1), padding=(1, 1))\
  (5): BatchNorm2d(256, eps=1e-05, momentum=0.1, affine=True, track_running_stats=True)\
  (6): ReLU(inplace=True)\
  (7): MaxPool2d(kernel_size=2, stride=2, padding=0, dilation=1, ceil_mode=False)\
  (8): Conv2d(256, 512, kernel_size=(3, 3), stride=(1, 1), padding=(1, 1))\
  (9): BatchNorm2d(512, eps=1e-05, momentum=0.1, affine=True, track_running_stats=True)\
  (10): ReLU(inplace=True)\
  (11): Conv2d(512, 512, kernel_size=(3, 3), stride=(1, 1), padding=(1, 1))\
  (12): BatchNorm2d(512, eps=1e-05, momentum=0.1, affine=True, track_running_stats=True)\
  (13): ReLU(inplace=True)\
  (14): MaxPool2d(kernel_size=2, stride=2, padding=0, dilation=1, ceil_mode=False)\
  (15): Conv2d(512, 512, kernel_size=(3, 3), stride=(1, 1), padding=(1, 1))\
  (16): BatchNorm2d(512, eps=1e-05, momentum=0.1, affine=True, track_running_stats=True)\
  (17): ReLU(inplace=True)\
  (18): Conv2d(512, 512, kernel_size=(3, 3), stride=(1, 1), padding=(1, 1))\
  (19): BatchNorm2d(512, eps=1e-05, momentum=0.1, affine=True, track_running_stats=True)\
  (20): ReLU(inplace=True)\
  (21): MaxPool2d(kernel_size=2, stride=2, padding=0, dilation=1, ceil_mode=False)\
)\
classifier:\
Sequential(\
  (0): Dropout(p=0.5, inplace=False)\
  (1): Linear(in_features=512, out_features=512, bias=True)\
  (2): ReLU(inplace=True)\
  (3): Dropout(p=0.5, inplace=False)\
  (4): Linear(in_features=512, out_features=512, bias=True)\
  (5): ReLU(inplace=True)\
  (6): Linear(in_features=512, out_features=10, bias=True)\
)\
Namespace(arch='vgg11_bn_sgm', cutlayer=4, batch_size=128, filename='pretrain_False_lambd_0_noise_0.01_epoch_240_bottleneck_noRELU_C8S1_log_1_ATstrength_0.3_lr_0.05_varthres_0.125_attention', folder='saves/cifar10/SCA_new_infocons_sgm_lg1_thre0.125', num_client=1, num_epochs=240, learning_rate=0.05, lambd=0.0, dataset_portion=1.0, client_sample_rati
…
